example/cifar_mlp_model.onnx (onnx, 1033 bytes, 2 tensors)

onnx::MatMul_20 f4 [42, 2]
0	0xbd1ec285	-0.038759727
1	0xbd4d9b09	-0.05019668
2	0x3d8b6080	0.06805515
3	0xbbdd827c	-0.0067599397
4	0xbd84ec76	-0.06490414
5	0xbd53cc72	-0.051708646
6	0xbddd7f01	-0.1081524
7	0x3dc6940d	0.09696207
8	0x3d913cf7	0.07091706
9	0xbd76042b	-0.06006257
10	0xbce70b1a	-0.028203536
11	0xbe065c1e	-0.13121077
12	0x3df24948	0.118303835
13	0xbdd43eeb	-0.10363563
14	0xbdb7e147	-0.08978515
15	0xbdc51742	-0.09623577
16	0x3e1bec4c	0.15226859
17	0x3dade814	0.08491531
18	0xbc23d998	-0.010000609
19	0x3de329ad	0.110919334
20	0xbc3efca4	-0.011656914
21	0x3e1b967a	0.15194121
22	0x3c5ca0d1	0.013466076
23	0xbd1fdb78	-0.03902766
24	0xbd871036	-0.06594889
25	0x3d035989	0.03206781
26	0xbd5139f9	-0.051080678
27	0xbdec66ea	-0.11543067
28	0xbc65382e	-0.013990445
29	0x3c8f76dc	0.017512731
30	0x3d83df68	0.06439096
31	0xbde5409e	-0.111939654
32	0x3d8f7f03	0.070066474
33	0x3e1b4d58	0.15166223
34	0xbdadd36b	-0.084875904
35	0xbcf80b89	-0.030278938
36	0x3d90aeb8	0.07064575
37	0xbdc35d4c	-0.09539279
38	0x3d0ee752	0.034888573
39	0x3de4778f	0.111556165
40	0xbd88a0f4	-0.06671324
41	0xbe08a136	-0.13342747
42	0x3d6669df	0.05625331
43	0x3e028722	0.12746862
44	0xbdb099c9	-0.08623082
45	0xbdb51860	-0.0884254
46	0xbd9ad76f	-0.07560622
47	0x3e1c8328	0.15284407
48	0xbd25f220	-0.04051411
49	0xbd5700b4	-0.052490905
50	0xbd41af52	-0.04728634
51	0xbd81005f	-0.06298899
52	0xbddfd36c	-0.109289974
53	0xbd15b9bf	-0.036554094
54	0xbe128b4d	-0.14310952
55	0x3c98dff6	0.01866148
56	0x3e107ff7	0.14111315
57	0xbcd376fb	-0.02581357
58	0xbcf48c13	-0.029851949
59	0xbcd6139d	-0.0261324
60	0xbb660c09	-0.0035102388
61	0x3d946309	0.07245452
62	0xbd9df6e8	-0.07713109
63	0xbe07d4cb	-0.13264768
64	0xbdf8bd08	-0.1214543
65	0x3de606f9	0.11231799
66	0xbe065246	-0.13117322
67	0x3debca3d	0.11513183
68	0x3e163655	0.14669164
69	0x3d4c8b8a	0.049937762
70	0x3ce2d2f0	0.027688473
71	0x3e0ab83c	0.13546842
72	0x3d1bf767	0.038077738
73	0xbc8e7cda	-0.017393518
74	0x3de9b5c9	0.11411626
75	0xbd826abc	-0.06368014
76	0xbdbc0b32	-0.09181823
77	0xbb8d9a2e	-0.004321358
78	0xbcdc9aea	-0.026929338
79	0xbd997abf	-0.07494115
80	0x3e1511a0	0.14557505
81	0xbde64cfb	-0.112451516
82	0x3dfe8cfd	0.12429235
83	0xbd05015f	-0.03247201

onnx::MatMul_21 f4 [2, 10]
0	0x3db07688	0.08616358
1	0xbefe89b1	-0.49714425
2	0xbe325f9b	-0.17419283
3	0xbeb42f48	-0.35192323
4	0x3d78383d	0.060600508
5	0x3ec88b25	0.3916866
6	0x3f2985cd	0.6621979
7	0xbf1dfa1b	-0.61709756
8	0xbf0723f5	-0.5278924
9	0xbe1afeb9	-0.15136231
10	0xbe6c4acc	-0.23075408
11	0xbe8b8816	-0.27252263
12	0xbd9b3926	-0.075792596
13	0x3c253d40	0.010085404
14	0xbe62ec8e	-0.22160551
15	0x3e748f7a	0.23882857
16	0x3f293616	0.66098154
17	0x3e6c169a	0.23055497
18	0x3e879bdc	0.264861
19	0xbec0869a	-0.37602693
