example/fhe-mlp-cifar10.onnx (onnx, 1343 bytes, 2 tensors)

w1 f8 [2, 42]
0	0xbfa3d850a0000000	-0.03875972703099251
1	0x3fb16c1000000000	0.0680551528930664
2	0xbfb09d8ec0000000	-0.06490413844585419
3	0xbfbbafe020000000	-0.10815239697694778
4	0x3fb2279ee0000000	0.07091706246137619
5	0xbf9ce16340000000	-0.028203535825014114
6	0x3fbe492900000000	0.11830383539199829
7	0xbfb6fc28e0000000	-0.0897851511836052
8	0x3fc37d8980000000	0.15226858854293823
9	0xbf847b3300000000	-0.01000060886144638
10	0xbf87df9480000000	-0.01165691390633583
11	0x3f8b941a20000000	0.013466075994074345
12	0xbfb0e206c0000000	-0.06594888865947723
13	0xbfaa273f20000000	-0.05108067765831947
14	0xbf8ca705c0000000	-0.01399044506251812
15	0x3fb07bed00000000	0.06439095735549927
16	0x3fb1efe060000000	0.07006647437810898
17	0xbfb5ba6d60000000	-0.08487590402364731
18	0x3fb215d700000000	0.07064574956893921
19	0x3fa1dcea40000000	0.03488857299089432
20	0xbfb1141e80000000	-0.06671324372291565
21	0x3faccd3be0000000	0.05625331029295921
22	0xbfb6133920000000	-0.0862308219075203
23	0xbfb35aede0000000	-0.07560621947050095
24	0xbfa4be4400000000	-0.04051411151885986
25	0xbfa835ea40000000	-0.04728633910417557
26	0xbfbbfa6d80000000	-0.1092899739742279
27	0xbfc25169a0000000	-0.1431095153093338
28	0x3fc20ffee0000000	0.14111314713954926
29	0xbf9e918260000000	-0.029851948842406273
30	0xbf6cc18120000000	-0.0035102388355880976
31	0xbfb3bedd00000000	-0.07713109254837036
32	0xbfbf17a100000000	-0.12145429849624634
33	0xbfc0ca48c0000000	-0.13117322325706482
34	0x3fc2c6caa0000000	0.14669163525104523
35	0x3f9c5a5e00000000	0.02768847346305847
36	0x3fa37eece0000000	0.038077738136053085
37	0x3fbd36b920000000	0.11411625891923904
38	0xbfb7816640000000	-0.09181822836399078
39	0xbf9b935d40000000	-0.0269293375313282
40	0x3fc2a23400000000	0.14557504653930664
41	0x3fbfd19fa0000000	0.12429235130548477
42	0xbfa9b36120000000	-0.050196681171655655
43	0xbf7bb04f80000000	-0.006759939715266228
44	0xbfaa798e40000000	-0.0517086461186409
45	0x3fb8d281a0000000	0.09696207195520401
46	0xbfaec08560000000	-0.06006256863474846
47	0xbfc0cb83c0000000	-0.13121077418327332
48	0xbfba87dd60000000	-0.10363563150167465
49	0xbfb8a2e840000000	-0.09623576700687408
50	0x3fb5bd0280000000	0.08491531014442444
51	0x3fbc6535a0000000	0.11091933399438858
52	0x3fc372cf40000000	0.1519412100315094
53	0xbfa3fb6f00000000	-0.039027661085128784
54	0x3fa06b3120000000	0.032067809253931046
55	0xbfbd8cdd40000000	-0.11543066799640656
56	0x3f91eedb80000000	0.0175127312541008
57	0xbfbca813c0000000	-0.11193965375423431
58	0x3fc369ab00000000	0.15166223049163818
59	0xbf9f017120000000	-0.03027893789112568
60	0xbfb86ba980000000	-0.09539279341697693
61	0x3fbc8ef1e0000000	0.11155616492033005
62	0xbfc11426c0000000	-0.1334274709224701
63	0x3fc050e440000000	0.12746861577033997
64	0xbfb6a30c00000000	-0.0884253978729248
65	0x3fc3906500000000	0.15284407138824463
66	0xbfaae01680000000	-0.05249090492725372
67	0xbfb0200be0000000	-0.06298898905515671
68	0xbfa2b737e0000000	-0.03655409440398216
69	0x3f931bfec0000000	0.018661480396986008
70	0xbf9a6edf60000000	-0.025813570246100426
71	0xbf9ac273a0000000	-0.02613239921629429
72	0x3fb28c6120000000	0.07245451956987381
73	0xbfc0fa9960000000	-0.13264767825603485
74	0x3fbcc0df20000000	0.11231798678636551
75	0x3fbd7947a0000000	0.11513183265924454
76	0x3fa9917140000000	0.049937762320041656
77	0x3fc1570780000000	0.13546842336654663
78	0xbf91cf9b40000000	-0.01739351823925972
79	0xbfb04d5780000000	-0.06368014216423035
80	0xbf71b345c0000000	-0.0043213581666350365
81	0xbfb32f57e0000000	-0.07494115084409714
82	0xbfbcc99f60000000	-0.11245151609182358
83	0xbfa0a02be0000000	-0.03247201070189476

w2 f8 [10, 2]
0	0x3fb60ed100000000	0.08616358041763306
1	0xbfcd895980000000	-0.2307540774345398
2	0xbfdfd13620000000	-0.49714425206184387
3	0xbfd17102c0000000	-0.27252262830734253
4	0xbfc64bf360000000	-0.17419283092021942
5	0xbfb36724c0000000	-0.075792595744133
6	0xbfd685e900000000	-0.35192322731018066
7	0x3f84a7a800000000	0.01008540391921997
8	0x3faf0707a0000000	0.060600508004426956
9	0xbfcc5d91c0000000	-0.22160550951957703
10	0x3fd91164a0000000	0.3916865885257721
11	0x3fce91ef40000000	0.23882856965065002
12	0x3fe530b9a0000000	0.6621978878974915
13	0x3fe526c2c0000000	0.6609815359115601
14	0xbfe3bf4360000000	-0.6170975565910339
15	0x3fcd82d340000000	0.2305549681186676
16	0xbfe0e47ea0000000	-0.5278924107551575
17	0x3fd0f37b80000000	0.26486098766326904
18	0xbfc35fd720000000	-0.1513623148202896
19	0xbfd810d340000000	-0.3760269284248352
