example/fhe-svm-rbf.onnx (onnx, 4434 bytes, 4 tensors)

sv f8 [70, 6]
000000 12 e2 ea e2 43 57 e0 bf e2 11 d2 8c 12 7c f4 bf
       -0.5106524879439027 -1.2802911282352558
000010 40 61 fe 10 77 48 a2 3f 36 bf 5c 87 aa 94 d3 bf
       0.03570911486093786 -0.30594886034940616
000020 dd d3 46 02 5e d3 f4 bf 69 a1 48 ab d8 87 f6 bf
       -1.3016033257419999 -1.4081656161088978
000030 6a b9 5b 40 ce ad 06 40 4b 45 03 d4 89 cc df bf
       2.8348660495750453 -0.4968590326726214
000040 54 66 14 69 4e cb ff 3f 14 b9 41 b4 d6 53 c4 bf
       1.987135324924016 -0.15880855371091995
000050 c6 09 86 56 73 d2 d8 3f 64 6e 57 19 ab 3c 01 c0
       0.38784488153046615 -2.154623220425309
000060 40 bd c3 a1 07 37 02 40 e5 bc bc 01 18 84 e0 3f
       2.276870025430668 0.5161247285776908
000070 0e 19 a0 45 17 24 e7 3f f2 a8 e9 a8 9b 70 fe bf
       0.7231556281920193 -1.9024921987680128
000080 d5 ba de e1 7c 6e de 3f 70 49 62 82 79 24 ff bf
       0.4754936414491742 -1.946404942810286
000090 34 d0 5f b0 a2 b9 c3 3f 52 f2 f8 01 0f 4b fb 3f
       0.15410264598870216 1.7058248593376857
0000a0 f3 2d 34 c2 6a 83 f7 3f 56 f1 a5 0a be 9f f5 3f
       1.4695842348181685 1.3514995971628045
0000b0 48 28 ca 34 97 8d a0 bf 00 6f b8 6f 01 46 95 3f
       -0.032330250925114046 0.02077486271274065
0000c0 c0 1c ef e6 a0 e2 b5 bf a1 91 fe cb 02 f8 ff 3f
       -0.08548932683980848 1.998049542287028
0000d0 13 d1 34 d7 8c bb fd 3f f2 c4 e5 f3 86 38 e2 bf
       1.8582886129852951 -0.5694002879737623
0000e0 01 2c c0 8e b7 45 f9 bf 2e 37 a8 d1 f4 3d f4 3f
       -1.5795207573125938 1.2651260556917339
0000f0 c4 b1 fa 4e fd 08 0d 40 6c 66 a9 bf 3b 80 ea 3f
       3.6293893976455553 0.8281534903901053
000100 36 1e 3f fb b3 83 fa 3f ca 76 26 3f 60 11 fc bf
       1.6571540655439896 -1.754242178612389
000110 df a7 61 9e 87 28 f0 3f bc a8 73 d4 36 30 02 c0
       1.0098949610496601 -2.273542079715382
000120 7e 70 8d 9f 9f 15 ec bf e6 3b 3b 47 55 05 a2 bf
       -0.8776395908603403 -0.03519693846248355
000130 de 97 af 0d 16 ef dc bf ff 30 44 f1 d3 9e 02 c0
       -0.45209266029848816 -2.327552685636078
000140 6e 2c 90 6d 4b f5 ac 3f 34 29 30 d6 36 79 02 c0
       0.05655894958916795 -2.3091866239020877
000150 e7 af 64 ca 2e 5d ff 3f 1d d1 e9 66 46 51 ed 3f
       1.9602497011173854 0.9161712656046209
000160 ca a7 b8 b5 d5 ba f5 3f 92 95 79 03 d0 d8 d5 bf
       1.3581139658440287 -0.3413581880507418
000170 bf ed 67 61 20 72 f1 3f 3b 30 5b c1 63 56 f8 bf
       1.0903629116936455 -1.5210912278153177
000180 bc e6 a0 78 c0 12 f0 bf df a3 85 00 51 a7 e6 3f
       -1.004578086095008 0.7079243669696743
000190 d6 36 02 8a cf b6 ee 3f f2 4a ad 5f 8a 7c d5 bf
       0.9598157592278891 -0.335726350244996
0001a0 1b 6f fb 1b e8 aa 01 40 8e 2a c9 54 bf ff ed 3f
       2.2084505258661813 0.9374691635105863
0001b0 15 96 2a a8 bc f2 fb 3f 05 a3 08 93 76 05 e1 3f
       1.7467619484899661 0.5319168922188459
0001c0 47 b3 29 15 cb 62 fb 3f a2 92 f0 ba e4 a2 fa bf
       1.711619455974146 -1.664768915398931
0001d0 7d 2a 70 28 82 48 e6 3f 2f 0e cc 32 d8 41 f0 bf
       0.6963511266524872 -1.0160753235112556
0001e0 af ab 9e cd f3 58 f4 3f 95 42 ef 6b 48 67 f6 bf
       1.2717168838523596 -1.4002155510135357
0001f0 08 d9 da 09 77 13 f5 bf 8b 8c cc b4 6d 8a 0c c0
       -1.3172521958309193 -3.5675920605586433
000200 7c 03 80 62 94 65 cd 3f 12 38 6c 73 14 fa 08 c0
       0.22966246423314007 -3.122109319439013
000210 58 81 0b 74 d8 b4 da bf 6b 62 3c 1a 0b 14 e8 bf
       -0.41728793461336045 -0.7524467003268688
000220 70 28 4c 6a 13 0c cd bf be 50 41 8b 5e 85 f9 bf
       -0.22693102541262844 -1.5950608672765578
000230 0d 38 65 26 ac c7 fa 3f c8 66 f4 ca 9b d1 01 c0
       1.6737481593913828 -2.227347932418386
000240 a0 c7 41 9e ab 58 df 3f 92 db 38 fe 73 3f ea 3f
       0.4897870107152986 0.8202457394862555
000250 0b 6c 16 68 21 44 00 40 d8 bb 40 d1 bf 89 da bf
       2.0332668430178322 -0.41465754923677656
000260 15 0e ca d9 01 51 fb bf 1c 17 5b ec c9 1f e1 3f
       -1.7072771556275985 0.535130464203323
000270 01 fe 35 7b f1 9b f7 bf e5 59 d9 ef 01 50 a5 bf
       -1.4755720913816506 -0.041626034286924164
000280 e0 6d e6 89 6a bb f9 bf 11 8b fd d9 e2 02 0d c0
       -1.6082559000704961 -3.6264092474460843
000290 72 70 41 5a bf cd ec bf 0c 23 cf b7 9a 62 04 c0
       -0.9001156580739134 -2.5481466636741796
0002a0 2c 8f f8 8d b9 c5 db bf 38 b7 69 00 7b 42 d8 bf
       -0.43394316543912015 -0.37905764618232096
0002b0 80 ee 9b ae 9f 5d ba 3f 83 f3 65 c3 13 ef eb bf
       0.10299108517568278 -0.8729342285511027
0002c0 c0 62 48 43 09 f4 f0 bf 7a 6d 9b 9a 13 57 ed bf
       -1.0595791462166488 -0.9168794650717438
0002d0 6a ef 0c 95 0f da e2 bf 30 ab 4b bf 50 7d c7 3f
       -0.5891187583106163 0.1835118230877355
0002e0 bc 2d ea 25 07 d0 e2 bf 92 90 8f a3 da 4a 00 c0
       -0.5878940334818519 -2.036549833124874
0002f0 9d c3 84 6e 22 9a d6 3f 68 15 75 e7 db 6e f3 bf
       0.3531576232226657 -1.2145651856711428
000300 e8 56 85 e2 4f a0 e9 3f 36 52 97 5d 4e 89 00 40
       0.8008193420634742 2.0670440017513796
000310 cc a4 fa f9 17 7e fc 3f 00 71 21 b3 c9 e2 94 3f
       1.780784584503908 0.020396377142206212
000320 a9 90 4d a9 78 1e ff bf 76 47 58 7c 27 7b f9 bf
       -1.9449392903707496 -1.5925669533939675
000330 ba 3a 74 c1 d0 b8 d4 3f a3 37 69 01 5a ae e1 3f
       0.3237802399825501 0.5525331523474403
000340 68 cf ff b9 8d 71 c1 bf 5c 54 7c 78 b2 24 f9 bf
       -0.13627788145060582 -1.571459265372389
000350 38 81 51 70 4c ea d2 3f 47 8a 2a bf 93 19 f3 bf
       0.29555045097915267 -1.1937444178989993
000360 57 5a 7c 32 27 17 fc bf 25 9c 3b 4d 25 b7 e3 3f
       -1.7556526157474275 0.6161066540197494
000370 e1 2a 64 9c ef e4 f3 bf 06 c3 11 74 8a 4d e0 bf
       -1.2433925732645366 -0.5094654337864035
000380 d0 9f 4a 90 4e eb e0 bf 00 a7 7e 83 6f 80 74 3f
       -0.5287239854997043 0.005005298233223376
000390 50 ac 54 79 87 69 e5 bf 60 19 06 4f ac e0 fd bf
       -0.6691319818249983 -1.8673518263691093
0003a0 5c a7 b5 31 4a 29 e1 bf 34 17 6b 77 a3 12 e9 bf
       -0.5362902613535243 -0.7835252125157468
0003b0 78 8e 67 c9 2b 79 e8 bf ec 7f 00 da 51 35 ec bf
       -0.7647913869554506 -0.8815087564325927
0003c0 82 25 0e e5 40 8c f9 bf f6 9f 7d bb 80 a4 e2 bf
       -1.5967415759535872 -0.582580915634934
0003d0 02 79 e0 d8 0a 73 e6 bf c4 53 e8 f4 bc 5e ce bf
       -0.701543258273688 -0.23726617773414038
0003e0 a5 df 27 e6 b0 b2 d0 3f f4 85 85 7c 2f 6f de bf
       0.2609064338316734 -0.4755362239867218
0003f0 5c 68 8d 21 4b a9 05 40 6c fb a0 11 74 c1 e7 3f
       2.707662832382125 0.7423649162591182
000400 69 21 74 a9 d9 e6 f3 3f 40 13 57 26 63 dc fd bf
       1.243859922340642 -1.8663054940854664
000410 3b 26 ba 3b 95 29 cf 3f 3b cc e4 ad f0 56 08 c0
       0.2434565106998877 -3.04245124678121
000420 13 df 92 3f b9 b2 ed bf 0c a6 47 64 e2 77 b3 3f
       -0.9280668489145419 0.07604803989638514
000430 70 ff 37 5c 74 e9 a8 bf 8c d9 8e e2 84 d0 0e c0
       -0.04865611673085268 -3.8518159580082223
000440 88 23 ef 6f e5 96 d6 3f be eb be 9d 39 da f7 bf
       0.3529599755389019 -1.4907776033348763
000450 e1 f4 71 cf 44 44 f7 bf 5a 38 3f d2 6e 5e f2 bf
       -1.4541671851468936 -1.1480549061557412
000460 13 df 78 28 7e c2 f7 bf 4b c2 a7 a8 52 a8 ec bf
       -1.4849835949843893 -0.8955472272919648
000470 96 25 e6 cc ae 45 e3 bf de 41 fd c4 32 f1 fc bf
       -0.6022562028821763 -1.8088863081830975
000480 29 2d e2 05 5e c8 ff 3f bd 80 d8 29 71 06 e0 bf
       1.9864177923034936 -0.5007863824175939
000490 69 8e db 79 cf b2 f6 3f 02 71 84 a8 07 09 fe bf
       1.4186548957885867 -1.8772045691212615
0004a0 67 f4 88 40 26 83 fe 3f ce 20 04 c7 28 f1 ff bf
       1.9070189019105557 -1.996376778990498
0004b0 da 9d d0 db 64 69 de bf 54 73 7d fe ee 7e f3 bf
       -0.4751827379827468 -1.2184896412865855
0004c0 ba ae fc ff 43 96 d8 bf 28 fd 9f 06 48 ab f5 bf
       -0.38417148588881 -1.3543167361056678
0004d0 53 31 44 f9 b0 90 f2 bf 00 0b 8f 5d 7e 54 73 3f
       -1.1603250252693058 0.004719251265614899
0004e0 f9 24 c4 a1 13 d2 f4 3f 4f 8b fc ca 3a 59 b2 bf
       1.3012882536880268 -0.07167403655743708
0004f0 1f 42 ec dc da a1 ec 3f 9f 36 38 80 9e c6 fe bf
       0.8947576823139264 -1.9234910019471625
000500 fe e9 23 87 8f 61 f0 bf ae 27 40 06 87 8b f8 bf
       -1.0238185194890543 -1.5340643161930347
000510 06 c5 20 86 33 c9 04 c0 0d 2e a4 23 41 e1 eb bf
       -2.598242805361795 -0.8712468811149293
000520 22 0e 1b 9d 4b 61 09 c0 33 f7 22 27 bc f7 08 c0
       -3.172507502926025 -3.1209643418832456
000530 5a f9 50 0f 20 06 cd bf ed 98 78 ea d8 12 09 c0
       -0.22674942729822584 -3.1342027967503925
000540 e0 8a 22 26 a9 14 e3 3f ff c1 58 e7 6a 96 c8 3f
       0.5962720627615816 0.19209038063264924
000550 e0 f0 79 c4 7d f8 e7 3f e0 ef 14 ec f5 16 b8 3f
       0.7490834081104616 0.09410035146441897
000560 da 09 f4 11 c6 8d f9 3f 7e 14 61 8e 29 eb f0 3f
       1.5971127225208108 1.0574126779258957
000570 0e 00 fb 34 3f d3 f1 3f 8c 36 74 2c 5a fa ce 3f
       1.114073950724563 0.24201514406779656
000580 9e 97 96 0e 37 14 01 40 f8 a8 03 4d 77 f1 d6 bf
       2.1348706378657445 -0.35848791619231646
000590 20 66 53 47 d7 7c f8 bf 74 8d 93 0c 4f 83 c4 bf
       -1.5304787431872526 -0.1602572261245815
0005a0 3a 18 64 2f 8a 2e fb bf c6 cd a7 20 dd 39 fc bf
       -1.6988622523508767 -1.764126899300082
0005b0 83 cc 58 fc 6f 0e 02 c0 20 47 aa ae 4b 5d 03 c0
       -2.25704953332894 -2.420554508754222
0005c0 cd a6 9a 44 8b ff f7 3f 72 9b 28 5d 97 54 fc bf
       1.4998886756751972 -1.7706521643646878
0005d0 d0 08 b9 0b 48 31 fc bf f1 a5 eb f2 b6 2a 01 c0
       -1.7620315988465798 -2.145856759849942
0005e0 7e 46 7d 2c 47 a7 fb bf 43 ed 3e 0b ad de ec bf
       -1.7283393609872344 -0.9021821231503185
0005f0 df 66 1d c5 03 6a e0 3f bc 76 85 19 03 38 c3 bf
       0.5129412507914956 -0.15014685388717008
000600 48 ed 56 79 dd c8 f2 bf 75 ed 33 3f 3a bd eb 3f
       -1.1740393390490045 0.866849063342143
000610 50 23 ea 48 b1 8c ed bf 00 bf 34 74 e0 c9 c9 3f
       -0.9234243797410304 0.2014732901966383
000620 2b b8 89 aa 77 25 de 3f 56 1b 74 4f 2f 16 e5 bf
       0.47103683141802105 -0.6589581062151904
000630 d4 17 a3 5a a7 5f ed 3f 2e 4d 2c cc 28 66 01 c0
       0.9179264803176417 -2.174882502653097
000640 8a f3 8a 1f ec ca fe 3f f4 90 24 04 b6 d5 de 3f
       1.924541590894679 0.4817938843209639
000650 07 72 ce f0 d3 41 00 40 ea 83 22 e4 48 f8 f4 3f
       2.032142525959219 1.3106163894192329
000660 bc 1a 5a 73 e9 67 ff bf f0 fc 56 34 32 60 a6 3f
       -1.962869120210299 0.0437026680842737
000670 6f f5 2e ac 2e e4 f8 bf 92 09 6a d3 b2 cb ee bf
       -1.5557085729518254 -0.9623655442413102
000680 2a 48 84 30 cd 2d f1 3f 29 af 91 bf 70 eb ec bf
       1.0736820120987525 -0.9037402860244345
000690 24 14 8a e3 6e 80 f8 bf c1 56 84 5a c7 0e ed bf
       -1.5313557518250116 -0.908054043570438
0006a0 aa da ec 32 1f 7b ff bf aa 8c 31 10 bf 05 fb bf
       -1.9675590504900051 -1.688902915245118
0006b0 95 68 98 9e fb f3 e1 3f 78 cf 7f c1 a6 ce 04 c0
       0.5610330674710605 -2.600903999054875
0006c0 f8 a8 71 15 29 31 ee bf ee a9 ea 72 d4 2f d0 bf
       -0.94350103557852 -0.2529193041069949
0006d0 ae 65 78 be 89 6d f6 bf 80 78 f1 c5 20 1a 8e 3f
       -1.401742691063514 0.014698272743938867
0006e0 75 26 83 48 c5 4f c0 3f d8 8c f6 e2 06 60 f8 bf
       0.12743440666809006 -1.523444067549283
0006f0 84 98 64 32 e6 d0 e7 bf 1e 69 70 f7 4f 9d f4 3f
       -0.7442503914105747 1.2884063401784895
000700 f8 0f f8 81 fa 53 ef bf 89 c1 b3 f7 bb 3b e7 bf
       -0.9790012873131664 -0.7260417783673329
000710 fd e2 fd da a3 ba dd 3f bb 74 ac d7 d0 98 f0 bf
       0.46451660524284916 -1.0373085427047914
000720 75 42 be 1c f7 1f e8 bf 53 be 49 cc 48 01 f9 3f
       -0.7539020120039611 1.5628135662081106
000730 94 e2 61 03 87 d7 fd 3f fc 30 a6 06 6b d4 d8 bf
       1.865118993008001 -0.3879649701054999
000740 0d 2a 32 0a ce c7 e1 3f 40 92 46 1b 8b 62 8f bf
       0.5556402396335344 -0.015324675340545046
000750 1d c5 32 68 37 19 e6 3f 92 b4 35 98 72 4c fb 3f
       0.6905781779406969 1.7061639733977114
000760 e2 4c d9 7d fd 44 f8 bf 52 20 11 52 1b 6f fa 3f
       -1.516843310925474 1.6521256643045672
000770 76 f9 8b 92 64 8b e0 3f 10 96 4d 71 80 ca cc 3f
       0.5170157301179603 0.2249298623311664
000780 cf 5c 75 1c d9 9d f5 bf 77 42 c9 63 34 1c ed bf
       -1.3510371314676382 -0.9096929501484529
000790 a5 9b e6 dd e9 90 0a 40 0a a5 f3 c3 d4 9d f5 bf
       3.320758565521333 -1.351032987057183
0007a0 a0 27 50 dd 9a 6f e4 3f 06 d1 54 a4 45 19 fe 3f
       0.6386236498376441 1.8811699313346835
0007b0 67 c7 93 92 9c 4d e9 3f fc 11 9e 34 0f f1 e8 bf
       0.7907240736806046 -0.7794261958775333
0007c0 31 c7 0e 9b a2 08 13 c0 36 c2 3f 67 22 d7 f1 3f
       -4.758432791497214 1.1150230439344688
0007d0 6d 14 3e 3f 76 92 01 c0 8a 77 80 36 98 d2 d1 3f
       -2.196514600832009 0.2784786731953025
0007e0 9a 18 1a 6c 5a e6 e6 bf 9a 78 58 43 94 34 d1 bf
       -0.7156192885747885 -0.2688341767951755
0007f0 61 64 90 3d 5a bf 03 40 00 43 bc 70 83 8d a3 3f
       2.468433838814733 0.0381890368572666

coeffs f8 [70]
000000 fa a6 d0 4f f2 73 e3 bf 42 cf e8 ae 80 76 e7 bf
       -0.6079036291968969 -0.7332156578254188
000010 2c 1c 2f 32 30 90 a1 bf 00 00 00 00 00 00 f0 bf
       -0.03430319416616387 -1.0
000020 1b d2 02 68 fd eb e9 bf 82 b2 26 35 40 67 e2 bf
       -0.8100573569741444 -0.5751038587673778
000030 b8 b1 69 0e 17 ab ea bf 20 70 d8 4b f2 b1 e3 bf
       -0.8333850175381974 -0.615471981177965
000040 00 00 00 00 00 00 f0 bf 2e 55 0c bf 3b 3b dc bf
       -1.0 -0.44111531884239497
000050 2c c5 2a ad 4c 68 ed bf 00 00 00 00 00 00 f0 bf
       -0.9189818746728284 -1.0
000060 86 7e 49 b9 a0 b6 d5 bf ad 06 2d 1c 03 7f ea bf
       -0.339271717972203 -0.8280044126806466
000070 b3 e3 f1 af c1 d1 dc bf 24 03 ee 51 97 3f d0 bf
       -0.45030252630345585 -0.25388129235220647
000080 06 53 42 7f 0f f9 ec bf 19 82 81 59 94 71 e3 bf
       -0.9054028974083799 -0.6076146839296285
000090 97 68 4f ac 93 38 e1 bf 36 17 12 2c 78 fd c3 bf
       -0.5381563535149948 -0.15617277290237447
0000a0 71 d8 d4 b5 62 d7 c8 bf 61 57 08 66 e5 4b e2 bf
       -0.19407304647910764 -0.5717646591972249
0000b0 1f 38 bf 1f 99 56 ef bf 7e a4 ef 9a 81 be d5 bf
       -0.9793210620935077 -0.3397525799796951
0000c0 6e db 86 01 4a 87 e6 bf 59 93 54 0d 75 50 e3 bf
       -0.7040147809810671 -0.603571439777265
0000d0 38 ff dd c1 9d 6d e7 bf 68 71 06 24 65 eb ea bf
       -0.7321308886020921 -0.8412347510925828
0000e0 00 00 00 00 00 00 f0 bf c9 a1 e6 93 91 fe ec bf
       -1.0 -0.9060752762498449
0000f0 1d e8 5e a6 dc 7c e7 bf 64 bd d0 c1 7c ec e8 bf
       -0.7339919328144365 -0.778868082566913
000100 d6 93 3a 4e e7 59 d0 bf eb 17 93 24 5e 0d ee bf
       -0.2554872764542869 -0.939131804880842
000110 30 ab c8 32 53 78 e0 bf 00 41 ea e9 7d 07 de bf
       -0.5146881095764453 -0.4692072662665083
000120 73 35 02 0f 70 0d d8 bf cb e9 d4 a9 81 99 eb bf
       -0.3758201738899835 -0.8624885861420862
000130 8b 64 8f 30 ec 80 d5 3f 95 be 9f 83 7a 84 e1 3f
       0.3359938120098113 0.5474217005521093
000140 05 61 93 ce df ce ee 3f 8d 7e 45 1b b7 7f ef 3f
       0.9627532038385033 0.9843402416845081
000150 ab c8 fe 7d 91 81 e5 3f d6 1a d0 ed 30 20 ee 3f
       0.6720664463848797 0.941429581144656
000160 06 4a a7 7c 26 50 db 3f 00 00 00 00 00 00 f0 3f
       0.4267669884985995 1.0
000170 97 26 da 70 75 99 ef 3f c0 85 bd fc 28 26 b0 3f
       0.987482757963522 0.06308227701585789
000180 ca 89 60 05 30 67 e3 3f 05 a0 d7 0f 33 6f e3 3f
       0.6063461403867276 0.6073241528911245
000190 00 00 00 00 00 00 f0 3f 8b 43 53 a6 81 48 e8 3f
       1.0 0.7588508842983271
0001a0 00 00 00 00 00 00 f0 3f 00 00 00 00 00 00 f0 3f
       1.0 1.0
0001b0 13 ee 14 09 32 2c ec 3f 95 e7 62 86 64 39 e4 3f
       0.8803949525240021 0.6320059418423961
0001c0 fe b0 14 df af ce c2 3f 11 d1 c7 c9 48 d7 e6 3f
       0.14693258659952585 0.7137798253084232
0001d0 00 00 00 00 00 00 f0 3f 00 fb 12 10 9f ce e1 3f
       1.0 0.5564723314235778
0001e0 00 00 00 00 00 00 f0 3f 90 70 14 0c 7a 82 e6 3f
       1.0 0.7034273372587609
0001f0 ce 42 d0 0d 2a 5c e1 3f 91 7f 1c 58 ec 35 ef 3f
       0.5425005216403294 0.9753324242519615
000200 93 15 d0 22 57 84 e7 3f 00 00 00 00 00 00 f0 3f
       0.7349048309267111 1.0
000210 00 00 00 00 00 00 f0 3f 00 00 00 00 00 00 f0 3f
       1.0 1.0
000220 ed 1e 93 2c a3 f9 ed 3f ad 18 c5 07 ee 79 e7 3f
       0.9367233152961184 0.7336340095287334

kernel_set f8 [1]
000000 00 00 00 00 00 00 e0 3f
       0.5

bias f8 [1]
000000 37 61 0c f6 70 13 af bf
       -0.0606952
