example/fhe-svm-linear.onnx (onnx, 3317 bytes, 4 tensors)

sv f8 [50, 6]
-0.5106524879439027 -1.2802911282352558 0.03570911486093786 -0.30594886034940616 -1.3016033257419999 -1.4081656161088978 2.8348660495750453 -0.4968590326726214
1.987135324924016 -0.15880855371091995 0.38784488153046615 -2.154623220425309 0.15410264598870216 1.7058248593376857 1.4695842348181685 1.3514995971628045
-0.032330250925114046 0.02077486271274065 -0.08548932683980848 1.998049542287028 1.8582886129852951 -0.5694002879737623 -1.5795207573125938 1.2651260556917339
1.9602497011173854 0.9161712656046209 1.3581139658440287 -0.3413581880507418 1.0903629116936455 -1.5210912278153177 -1.004578086095008 0.7079243669696743
0.9598157592278891 -0.335726350244996 2.2084505258661813 0.9374691635105863 1.7467619484899661 0.5319168922188459 1.711619455974146 -1.664768915398931
0.6963511266524872 -1.0160753235112556 -0.41728793461336045 -0.7524467003268688 -0.22693102541262844 -1.5950608672765578 1.6737481593913828 -2.227347932418386
0.4897870107152986 0.8202457394862555 2.0332668430178322 -0.41465754923677656 -1.7072771556275985 0.535130464203323 -0.43394316543912015 -0.37905764618232096
0.10299108517568278 -0.8729342285511027 -1.0595791462166488 -0.9168794650717438 0.8008193420634742 2.0670440017513796 1.780784584503908 0.020396377142206212
-1.9449392903707496 -1.5925669533939675 -1.7556526157474275 0.6161066540197494 -1.2433925732645366 -0.5094654337864035 -0.5287239854997043 0.005005298233223376
-0.6691319818249983 -1.8673518263691093 -0.5362902613535243 -0.7835252125157468 -0.7647913869554506 -0.8815087564325927 -1.5967415759535872 -0.582580915634934
-0.701543258273688 -0.23726617773414038 0.2609064338316734 -0.4755362239867218 -1.4541671851468936 -1.1480549061557412 -1.4849835949843893 -0.8955472272919648
-0.6022562028821763 -1.8088863081830975 -0.4751827379827468 -1.2184896412865855 -0.38417148588881 -1.3543167361056678 -1.1603250252693058 0.004719251265614899
0.5962720627615816 0.19209038063264924 0.7490834081104616 0.09410035146441897 1.5971127225208108 1.0574126779258957 1.114073950724563 0.24201514406779656
2.1348706378657445 -0.35848791619231646 -1.5304787431872526 -0.1602572261245815 -1.6988622523508767 -1.764126899300082 -2.25704953332894 -2.420554508754222
1.4998886756751972 -1.7706521643646878 -1.7620315988465798 -2.145856759849942 -1.7283393609872344 -0.9021821231503185 0.5129412507914956 -0.15014685388717008
-1.1740393390490045 0.866849063342143 -0.9234243797410304 0.2014732901966383 0.47103683141802105 -0.6589581062151904 0.9179264803176417 -2.174882502653097
1.924541590894679 0.4817938843209639 2.032142525959219 1.3106163894192329 -1.962869120210299 0.0437026680842737 -1.5557085729518254 -0.9623655442413102
1.0736820120987525 -0.9037402860244345 -0.94350103557852 -0.2529193041069949 -1.401742691063514 0.014698272743938867 0.12743440666809006 -1.523444067549283
-0.7442503914105747 1.2884063401784895 -0.9790012873131664 -0.7260417783673329 0.46451660524284916 -1.0373085427047914 -0.7539020120039611 1.5628135662081106
1.865118993008001 -0.3879649701054999 0.5556402396335344 -0.015324675340545046 0.6905781779406969 1.7061639733977114 -1.516843310925474 1.6521256643045672
0.5170157301179603 0.2249298623311664 0.7907240736806046 -0.7794261958775333 -4.758432791497214 1.1150230439344688 -2.196514600832009 0.2784786731953025
-0.7156192885747885 -0.2688341767951755 2.468433838814733 0.0381890368572666 -0.43986428761541757 0.4083077115549889 1.6036734538798367 0.08703522814667258
-3.734886191939885 0.9464193629300054 -0.9473413799421244 1.2771355140607663 -1.6183604419217068 -0.008790556303355637 1.9176986198690624 -1.4773212508411657
0.4514111986474981 -1.0096594908119336 -0.08220194540269798 0.07526594592918776 1.5533222712669001 -0.1393859536266404 -0.8750086674580759 -1.0187528042170784
-1.2899146170773808 -1.7295800930091456 0.8495775671046333 -1.1054221926247394 1.241713959652344 -1.5738095857950825 0.9657255349904893 -0.329273707055818
-0.7862813483631217 1.302571997945923 -0.4702814467294437 0.8052421779346662 0.4174195492497923 1.1819740486218142 -0.8701454397753758 1.1634613674840832
0.3581718453613483 0.5050681337615106 -0.5066018513805834 2.0844772305415638 1.5908936270240566 -0.041595434905228545 1.3909034961852749 -0.915800778436904
-0.8942686398004411 0.28598016618828376 -0.0823265243764133 -2.8336120072584143 1.7831128353750567 -1.46576698252871 -1.2465658756048734 1.1888010076522058
0.7067584135910586 -1.168103060609009 -0.04130843058077276 -1.551248874058262 -0.8654724107174884 -2.007568021362774 1.736851344292579 -0.01123507783066835
1.0674561722347518 -1.3076835410962566 -0.5783713813873501 0.7114542651948267 1.562616344744177 -0.9262670262008422 -0.28937794713269144 -1.5674004779383979
1.904208405636648 0.6587051257097538 -1.841128863905451 2.3861492092241434 -0.9091576170851242 1.002015551057079 0.155512746128743 -1.0546368888660922
-0.17596285902130293 0.4971253436454829 -0.7294741023038305 0.6617154951784303 -0.3167818255844024 0.21586064818900524 2.014873414045711 -0.557500642965898
00000000: 12e2 eae2 4357 e0bf e211 d28c 127c f4bf
00000010: 4061 fe10 7748 a23f 36bf 5c87 aa94 d3bf
00000020: ddd3 4602 5ed3 f4bf 69a1 48ab d887 f6bf
00000030: 6ab9 5b40 cead 0640 4b45 03d4 89cc dfbf
00000040: 5466 1469 4ecb ff3f 14b9 41b4 d653 c4bf
00000050: c609 8656 73d2 d83f 646e 5719 ab3c 01c0
00000060: 34d0 5fb0 a2b9 c33f 52f2 f801 0f4b fb3f
00000070: f32d 34c2 6a83 f73f 56f1 a50a be9f f53f
00000080: 4828 ca34 978d a0bf 006f b86f 0146 953f
00000090: c01c efe6 a0e2 b5bf a191 fecb 02f8 ff3f
000000a0: 13d1 34d7 8cbb fd3f f2c4 e5f3 8638 e2bf
000000b0: 012c c08e b745 f9bf 2e37 a8d1 f43d f43f
000000c0: e7af 64ca 2e5d ff3f 1dd1 e966 4651 ed3f
000000d0: caa7 b8b5 d5ba f53f 9295 7903 d0d8 d5bf
000000e0: bfed 6761 2072 f13f 3b30 5bc1 6356 f8bf
000000f0: bce6 a078 c012 f0bf dfa3 8500 51a7 e63f
00000100: d636 028a cfb6 ee3f f24a ad5f 8a7c d5bf
00000110: 1b6f fb1b e8aa 0140 8e2a c954 bfff ed3f
00000120: 1596 2aa8 bcf2 fb3f 05a3 0893 7605 e13f
00000130: 47b3 2915 cb62 fb3f a292 f0ba e4a2 fabf
00000140: 7d2a 7028 8248 e63f 2f0e cc32 d841 f0bf
00000150: 5881 0b74 d8b4 dabf 6b62 3c1a 0b14 e8bf
00000160: 7028 4c6a 130c cdbf be50 418b 5e85 f9bf
00000170: 0d38 6526 acc7 fa3f c866 f4ca 9bd1 01c0
00000180: a0c7 419e ab58 df3f 92db 38fe 733f ea3f
00000190: 0b6c 1668 2144 0040 d8bb 40d1 bf89 dabf
000001a0: 150e cad9 0151 fbbf 1c17 5bec c91f e13f
000001b0: 2c8f f88d b9c5 dbbf 38b7 6900 7b42 d8bf
000001c0: 80ee 9bae 9f5d ba3f 83f3 65c3 13ef ebbf
000001d0: c062 4843 09f4 f0bf 7a6d 9b9a 1357 edbf
000001e0: e856 85e2 4fa0 e93f 3652 975d 4e89 0040
000001f0: cca4 faf9 177e fc3f 0071 21b3 c9e2 943f
00000200: a990 4da9 781e ffbf 7647 587c 277b f9bf
00000210: 575a 7c32 2717 fcbf 259c 3b4d 25b7 e33f
00000220: e12a 649c efe4 f3bf 06c3 1174 8a4d e0bf
00000230: d09f 4a90 4eeb e0bf 00a7 7e83 6f80 743f
00000240: 50ac 5479 8769 e5bf 6019 064f ace0 fdbf
00000250: 5ca7 b531 4a29 e1bf 3417 6b77 a312 e9bf
00000260: 788e 67c9 2b79 e8bf ec7f 00da 5135 ecbf
00000270: 8225 0ee5 408c f9bf f69f 7dbb 80a4 e2bf
00000280: 0279 e0d8 0a73 e6bf c453 e8f4 bc5e cebf
00000290: a5df 27e6 b0b2 d03f f485 857c 2f6f debf
000002a0: e1f4 71cf 4444 f7bf 5a38 3fd2 6e5e f2bf
000002b0: 13df 7828 7ec2 f7bf 4bc2 a7a8 52a8 ecbf
000002c0: 9625 e6cc ae45 e3bf de41 fdc4 32f1 fcbf
000002d0: da9d d0db 6469 debf 5473 7dfe ee7e f3bf
000002e0: baae fcff 4396 d8bf 28fd 9f06 48ab f5bf
000002f0: 5331 44f9 b090 f2bf 000b 8f5d 7e54 733f
00000300: e08a 2226 a914 e33f ffc1 58e7 6a96 c83f
00000310: e0f0 79c4 7df8 e73f e0ef 14ec f516 b83f
00000320: da09 f411 c68d f93f 7e14 618e 29eb f03f
00000330: 0e00 fb34 3fd3 f13f 8c36 742c 5afa ce3f
00000340: 9e97 960e 3714 0140 f8a8 034d 77f1 d6bf
00000350: 2066 5347 d77c f8bf 748d 930c 4f83 c4bf
00000360: 3a18 642f 8a2e fbbf c6cd a720 dd39 fcbf
00000370: 83cc 58fc 6f0e 02c0 2047 aaae 4b5d 03c0
00000380: cda6 9a44 8bff f73f 729b 285d 9754 fcbf
00000390: d008 b90b 4831 fcbf f1a5 ebf2 b62a 01c0
000003a0: 7e46 7d2c 47a7 fbbf 43ed 3e0b adde ecbf
000003b0: df66 1dc5 036a e03f bc76 8519 0338 c3bf
000003c0: 48ed 5679 ddc8 f2bf 75ed 333f 3abd eb3f
000003d0: 5023 ea48 b18c edbf 00bf 3474 e0c9 c93f
000003e0: 2bb8 89aa 7725 de3f 561b 744f 2f16 e5bf
000003f0: d417 a35a a75f ed3f 2e4d 2ccc 2866 01c0
00000400: 8af3 8a1f ecca fe3f f490 2404 b6d5 de3f
00000410: 0772 cef0 d341 0040 ea83 22e4 48f8 f43f
00000420: bc1a 5a73 e967 ffbf f0fc 5634 3260 a63f
00000430: 6ff5 2eac 2ee4 f8bf 9209 6ad3 b2cb eebf
00000440: 2a48 8430 cd2d f13f 29af 91bf 70eb ecbf
00000450: f8a8 7115 2931 eebf eea9 ea72 d42f d0bf
00000460: ae65 78be 896d f6bf 8078 f1c5 201a 8e3f
00000470: 7526 8348 c54f c03f d88c f6e2 0660 f8bf
00000480: 8498 6432 e6d0 e7bf 1e69 70f7 4f9d f43f
00000490: f80f f881 fa53 efbf 89c1 b3f7 bb3b e7bf
000004a0: fde2 fdda a3ba dd3f bb74 acd7 d098 f0bf
000004b0: 7542 be1c f71f e8bf 53be 49cc 4801 f93f
000004c0: 94e2 6103 87d7 fd3f fc30 a606 6bd4 d8bf
000004d0: 0d2a 320a cec7 e13f 4092 461b 8b62 8fbf
000004e0: 1dc5 3268 3719 e63f 92b4 3598 724c fb3f
000004f0: e24c d97d fd44 f8bf 5220 1152 1b6f fa3f
00000500: 76f9 8b92 648b e03f 1096 4d71 80ca cc3f
00000510: 67c7 9392 9c4d e93f fc11 9e34 0ff1 e8bf
00000520: 31c7 0e9b a208 13c0 36c2 3f67 22d7 f13f
00000530: 6d14 3e3f 7692 01c0 8a77 8036 98d2 d13f
00000540: 9a18 1a6c 5ae6 e6bf 9a78 5843 9434 d1bf
00000550: 6164 903d 5abf 0340 0043 bc70 838d a33f
00000560: bd23 7f8a bc26 dcbf 7054 f5aa b621 da3f
00000570: 4509 de7e a5a8 f93f 4c67 7dd2 f047 b63f
00000580: 6e4f 0503 0ce1 0dc0 a5bc 8242 1149 ee3f
00000590: 46f7 9fde 9e50 eebf de37 17a6 256f f43f
000005a0: f619 33eb cde4 f9bf e845 b17e c800 82bf
000005b0: 58c0 7ebf e4ae fe3f 25c7 a09b 1ba3 f7bf
000005c0: 764e cfcb ebe3 dc3f dd21 d2b5 9027 f0bf
000005d0: 0813 2ccb 2f0b b5bf 9eb3 4408 a144 b33f
000005e0: 20d6 3374 68da f83f 9891 2c20 66d7 c1bf
000005f0: 025e 4e2d 1200 ecbf 5a21 8dbd cf4c f0bf
00000600: e8ac 6f82 7da3 f4bf 3897 f42c 5cac fbbf
00000610: 0e26 444b bd2f eb3f ad88 592e cfaf f1bf
00000620: 8018 fb74 0fde f33f 60f0 d1f5 522e f9bf
00000630: b947 b63c 39e7 ee3f ef31 cf06 d212 d5bf
00000640: 9c94 9580 3729 e9bf 55cf 3dbc 55d7 f43f
00000650: f295 675a 1719 debf c3da 723e 8bc4 e93f
00000660: 744a 2f7c 00b7 da3f 8fd2 b89e 5de9 f23f
00000670: 2e29 d33f 3bd8 ebbf a50e b8aa 899d f23f
00000680: 8c32 8b9a 49ec d63f f63c 98a5 8429 e03f
00000690: 9eb9 f815 1536 e0bf 1b76 f365 02ad 0040
000006a0: f6ba 37e0 4c74 f93f a065 2931 ff4b a5bf
000006b0: 0420 4006 2441 f63f 0636 216f 3d4e edbf
000006c0: 6600 3944 d99d ecbf 2d55 45c1 7f4d d23f
000006d0: 3040 cae1 5913 b5bf 8bd2 a5c5 3cab 06c0
000006e0: 1e38 1053 a187 fc3f 5347 5814 c873 f7bf
000006f0: 4485 400f eff1 f3bf d016 9534 5405 f33f
00000700: 6d7c 11d2 c39d e63f 6dc5 bad5 8cb0 f2bf
00000710: 8779 c9ec 6026 a5bf ca97 e056 ead1 f8bf
00000720: 8be6 7332 f3b1 ebbf 04fd a1d2 7f0f 00c0
00000730: 1401 9ca2 24ca fb3f 404e ce9e 6a02 87bf
00000740: ec95 5aec 4c14 f13f 106a a893 45ec f4bf
00000750: 4a08 00b3 0482 e2bf 5791 33bc 3bc4 e63f
00000760: daf0 0dff 7900 f93f 55aa 1cbf faa3 edbf
00000770: f195 c714 2b85 d2bf daae 0786 1214 f9bf
00000780: aea4 af3b a377 fe3f d630 94c5 1c14 e53f
00000790: f620 238a 4375 fdbf a0f3 8765 d516 0340
000007a0: db46 09b7 d117 edbf 27fa 5d75 4108 f03f
000007b0: 0cf7 5d77 d7e7 c33f 605c 2dee cadf f0bf
000007c0: d850 6772 f385 c6bf 4a16 3ed1 e6d0 df3f
000007d0: ac90 9512 da57 e7bf 9c87 61f9 c52c e53f
000007e0: 308a 3647 2746 d4bf ae89 3b5c 52a1 cb3f
000007f0: e43f d7f3 751e 0040 3c33 a196 0bd7 e1bf

coeffs f8 [50]
-1.0 -0.4616741903980147 -1.0 -1.0 -1.0 -1.0 -0.3370503013904476 -1.0
-1.0 -1.0 -1.0 -1.0 -1.0 -1.0 -1.0 -1.0
-1.0 -1.0 -0.006245294272791827 -1.0 -1.0 -1.0 -1.0 -1.0
-1.0 1.0 0.3288896257520143 1.0 0.8748576570714617 1.0 1.0 1.0
1.0 1.0 1.0 0.0976624930910536 1.0 1.0 1.0 1.0
1.0 1.0 0.5035600101467248 1.0 1.0 1.0 1.0 1.0
1.0 1.0
00000000: 0000 0000 0000 f0bf 0aac 4ae7 118c ddbf
00000010: 0000 0000 0000 f0bf 0000 0000 0000 f0bf
00000020: 0000 0000 0000 f0bf 0000 0000 0000 f0bf
00000030: f50c 656d 3b92 d5bf 0000 0000 0000 f0bf
00000040: 0000 0000 0000 f0bf 0000 0000 0000 f0bf
00000050: 0000 0000 0000 f0bf 0000 0000 0000 f0bf
00000060: 0000 0000 0000 f0bf 0000 0000 0000 f0bf
00000070: 0000 0000 0000 f0bf 0000 0000 0000 f0bf
00000080: 0000 0000 0000 f0bf 0000 0000 0000 f0bf
00000090: 5d14 7d6a aa94 79bf 0000 0000 0000 f0bf
000000a0: 0000 0000 0000 f0bf 0000 0000 0000 f0bf
000000b0: 0000 0000 0000 f0bf 0000 0000 0000 f0bf
000000c0: 0000 0000 0000 f0bf 0000 0000 0000 f03f
000000d0: 264f a612 870c d53f 0000 0000 0000 f03f
000000e0: 18de 387c d5fe eb3f 0000 0000 0000 f03f
000000f0: 0000 0000 0000 f03f 0000 0000 0000 f03f
00000100: 0000 0000 0000 f03f 0000 0000 0000 f03f
00000110: 0000 0000 0000 f03f ea34 dfbd 6800 b93f
00000120: 0000 0000 0000 f03f 0000 0000 0000 f03f
00000130: 0000 0000 0000 f03f 0000 0000 0000 f03f
00000140: 0000 0000 0000 f03f 0000 0000 0000 f03f
00000150: 62ea e4e1 291d e03f 0000 0000 0000 f03f
00000160: 0000 0000 0000 f03f 0000 0000 0000 f03f
00000170: 0000 0000 0000 f03f 0000 0000 0000 f03f
00000180: 0000 0000 0000 f03f 0000 0000 0000 f03f

kernel_set f8 [1]
0.5
00000000: 0000 0000 0000 e03f

bias f8 [1]
0.29189661
00000000: 5cd9 701e 6fae d23f
